PROJECT-C.RNN/03_rnn_pt/saved/pretrained/LSTM/best_model.pt (torch_old, 178996 bytes, 5 tensors)

lstm.weight_ih_l0 f4 [400, 9]
0	0x3d619f24	0.05508341
1	0x3d01fced	0.03173535
2	0xbd7db08d	-0.06193595
3	0x3d94f6b0	0.072736144
4	0x3d946f3d	0.072477795
5	0x3c0ec2cf	0.008713438
6	0xbd9d78c5	-0.076890506
7	0xbdd494f5	-0.10379974
8	0x3d90cebb	0.07070681
9	0xbc74f018	-0.014949821
10	0xbd99e4da	-0.07514353
11	0x3dfdf7e8	0.124008
12	0x3889cb0a	6.570488e-05
13	0x3c5a3b45	0.013319795
14	0x3cd7ae0c	0.02632811
15	0xbdcc157e	-0.09965037
16	0xbde9c12c	-0.11413798
17	0x3c46f8b7	0.012144259
18	0x3d05a7dd	0.03263079
19	0x3d96d9ba	0.07365747
20	0x3d2daec0	0.042402983
21	0xbd92607d	-0.0714731
22	0x3a996308	0.0011702487
23	0x3d9e2e7a	0.077237085
24	0xbd0c7503	-0.03429128
25	0xbc44f041	-0.012020172
26	0xbd6b1973	-0.057397317
27	0xbd247324	-0.04014887
28	0x3cd62e6c	0.026145183
29	0x3dcffe0c	0.101558775
30	0x3b5a22cd	0.0033284903
31	0xbb51923c	-0.0031978032
32	0xbd9d8fbc	-0.07693431
33	0xbde99abe	-0.11406468
34	0xbda9c6ce	-0.08289872
35	0xbd608f6b	-0.054824274
36	0xbd0947f8	-0.0335159
37	0x3d1a6a10	0.037698805
38	0x3dca2930	0.09871137
39	0xbcdb6977	-0.026783688
40	0x3ada82c4	0.0016671051
41	0x3d978ff0	0.07400501
42	0xbab523a0	-0.0013819821
43	0x3dbea063	0.09307935
44	0xbc68be16	-0.014205476
45	0x3da529e9	0.08064634
46	0xbd4f2f62	-0.050582297
47	0x3dd5e4d9	0.1044404
48	0x3c8460d4	0.016159452
49	0xbdbd6c20	-0.09249139
50	0x3d9e0cba	0.07717271
51	0xbd59c326	-0.053164624
52	0x3dc27d55	0.094965614
53	0xbdaac80e	-0.08338939
54	0xbd7f663e	-0.062353365
55	0xbd9b7160	-0.07589984
56	0xbb37db8b	-0.0028054442
57	0x3d5959d0	0.053064167
58	0xbdb5fbf1	-0.08885945
59	0xbda4f4fe	-0.08054541
60	0xbd6720bc	-0.056427702
61	0xbd8df5f9	-0.06931681
62	0x3c0d3187	0.008617765
63	0xbdb43562	-0.087992445
64	0x3c9cd522	0.019144598
65	0xbd2cf2a5	-0.04222359
66	0xbcf6b5a0	-0.030115902
67	0xbd302fda	-0.043014385
68	0xbd12d700	-0.03584957
69	0xbdcd14b3	-0.10013714
70	0xbc87ef86	-0.016593706
71	0xbb3a6b00	-0.0028445125
72	0xbc96d173	-0.01841042
73	0x3c6834a0	0.014172703
74	0x3dd308c0	0.10304403
75	0x3c472653	0.012155133
76	0x3da1d85a	0.07902594
77	0xbdcf86a0	-0.101330996
78	0xbdad6bf8	-0.08467859
79	0x3c4bc0f3	0.012436139
80	0xbc9b3e56	-0.018950623
81	0xbc30441f	-0.010758429
82	0xbdaf610b	-0.08563431
83	0x3dc74895	0.09730641
84	0xbdd05c37	-0.101738386
85	0x3ccc947c	0.024973147
86	0x3d5912f4	0.05299659
87	0xbdb8b80f	-0.090194814
88	0xbd00b014	-0.03141792
89	0x3d827c16	0.06371324
90	0xbd917322	-0.07102038
91	0x3c32f765	0.010923241
92	0xbde7cfed	-0.113189556
93	0xbdc57e5b	-0.09643241
94	0x3cf91ec2	0.030410174
95	0xbdc878d0	-0.09788668
96	0x3bef9261	0.007311151
97	0x3d7faedb	0.062422615
98	0x3d92a813	0.07160964
99	0xbd168521	-0.036748055
100	0xbd413789	-0.047172103
101	0x3daed3e7	0.08536511
102	0x3d9bb027	0.07601958
103	0x3ddf84f2	0.10914029
104	0x3dae119d	0.08499453
105	0x3bc988e3	0.0061503514
106	0xbd722e9b	-0.059126478
107	0x3d50d4c5	0.050984163
108	0xbdc08401	-0.09400178
109	0x3d9d8d27	0.07692938
110	0x3db1c306	0.08679776
111	0xbcf32d44	-0.02968467
112	0xbd7d1052	-0.061783142
113	0xbd9595ae	-0.0730394
114	0xbda9f7bb	-0.08299204
115	0x3c516652	0.012780743
116	0x3d7bd75c	0.06148468
117	0xbd02a78c	-0.031898066
118	0x3d5435fc	0.051809296
119	0xbd652169	-0.055940066
120	0xbd8db0de	-0.069185
121	0x3c8eaf64	0.017417617
122	0x3c7c829c	0.015411999
123	0x3d5643e8	0.052310854
124	0x3cd463c0	0.02592647
125	0x3d74cf69	0.059768114
126	0xbde4218e	-0.111392125
127	0x3da3dd2d	0.0800117
128	0x3dd65a75	0.10466472
129	0x3cedb317	0.02901606
130	0xbda392fc	-0.079870194
131	0xbdbdb6db	-0.092633925
132	0x3c90a2cb	0.01765575
133	0x3bd06f09	0.0063608927
134	0x3cbc1af4	0.022962071
135	0x3dedaf9c	0.116057605
136	0x3dd3c32e	0.10339962
137	0xbdb794de	-0.08963941
138	0xbd371602	-0.044698723
139	0xbd904201	-0.07043839
140	0x3d873ae0	0.066030264
141	0x3cf6766b	0.030085763
142	0x3c7290ea	0.014805058
143	0x3d41a1f8	0.047273606
144	0xbd037040	-0.03208947
145	0xbd4a55d2	-0.04939825
146	0xba2801d4	-0.0006408964
147	0x3da92fd8	0.082610786
148	0xbdd0f50a	-0.102029875
149	0x3b43f585	0.002990098
150	0x3da7d414	0.081947476
151	0xbdc3f3e9	-0.095680065
152	0x3b4576b8	0.0030130576
153	0x3d57cae8	0.05268374
154	0xbdc0db23	-0.09416797
155	0x3db45b63	0.08806493
156	0xbd448ae0	-0.047984004
157	0xbc4f1838	-0.012640052
158	0xbc878dd3	-0.01654712
159	0x3d2939d7	0.041314926
160	0x3d2f7870	0.042839468
161	0xbd2f4fa7	-0.04280057
162	0xbdebe3c0	-0.11518049
163	0x3da14ee7	0.078763776
164	0xbd953cd8	-0.07286996
165	0x3c1428a6	0.0090428945
166	0x3d7defea	0.061996378
167	0x3ceba2c0	0.028764129
168	0x3d3e2688	0.046423465
169	0xbdb11c68	-0.08647996
170	0xbda86ff0	-0.082244754
171	0xbd066ce0	-0.032818675
172	0xbd2bbbbb	-0.04192708
173	0x3d9069ba	0.07051416
174	0xbd627838	-0.05529043
175	0x3d2bdf2c	0.04196088
176	0xbc3ff21b	-0.011715437
177	0x3d9164cc	0.070993036
178	0x3bcb7d40	0.0062099993
179	0xbdaa222d	-0.083073
180	0x3d0956c8	0.033530027
181	0x3db1d3b4	0.08682957
182	0xbcfd5fa4	-0.030929394
183	0xbba2983e	-0.0049619963
184	0x3da5ecff	0.08101844
185	0xbb4c711d	-0.003119535
186	0x3d24edbc	0.040265784
187	0x3d5a324e	0.05327063
188	0x3d81bf37	0.063352995
189	0xbd45e3e1	-0.048313025
190	0xbd3d5912	-0.046227522
191	0xbd49ebd4	-0.04929717
192	0x3cfa5b8c	0.030561231
193	0x3c055070	0.008136854
194	0x3d120fdc	0.035659656
195	0x3d69df76	0.057097875
196	0x3d913d36	0.07091753
197	0xbd6ed179	-0.058305237
198	0xbda8d23b	-0.08243223
199	0xbd2d14b8	-0.042256087
200	0xbda1100f	-0.07864391
201	0x3de05a1c	0.10954687
202	0x3d086771	0.033301774
203	0xbbcdac23	-0.006276624
204	0x3d106dec	0.03526108
205	0xbca23bd8	-0.019803926
206	0x3d7cb9e7	0.061700728
207	0x3cbd300d	0.023094201
208	0xbc99e7d9	-0.018787311
209	0xbd37a331	-0.044833366
210	0xbdebf1fb	-0.115207635
211	0xbd65c9de	-0.05610072
212	0xbd315d1c	-0.043301687
213	0xbdba7009	-0.091034
214	0x3d766624	0.060156003
215	0x3c3463e8	0.011010148
216	0xbd721a60	-0.059107184
217	0xbd0736a8	-0.03301111
218	0x3daeecc5	0.08541254
219	0x3c07435f	0.008255809
220	0xbccb354b	-0.024805686
221	0xbd4f1287	-0.05055478
222	0x3d8814b0	0.06644571
223	0xbdb59765	-0.08866767
224	0x3d9dc031	0.07702673
225	0x3dc77e38	0.09740871
226	0x3d969313	0.07352271
227	0xbce17a0e	-0.02752402
228	0x3db7b0fe	0.089693055
229	0xbda47066	-0.08029251
230	0x3dc36867	0.095413975
231	0x3d65dd15	0.056119043
232	0xbbb2e951	-0.0054599424
233	0x3b95a030	0.004566215
234	0x3d95f3d8	0.073219
235	0x3c816616	0.015795749
236	0x3bec3344	0.00720826
237	0xbd8f183f	-0.069870465
238	0x3d9b5225	0.07584027
239	0xbbcbf4be	-0.006224244
240	0xbd465544	-0.04842116
241	0xbdc50396	-0.096198246
242	0xbc24821d	-0.010040787
243	0xbda08340	-0.07837534
244	0x3cfce5c7	0.030871285
245	0xbd985344	-0.07437757
246	0xbd33e8c1	-0.043923143
247	0xbd41b5fe	-0.047292702
248	0xbd87362b	-0.066021286
249	0x3be20d37	0.006898548
250	0x3c57cb52	0.013171034
251	0x3c9bae91	0.019004138
252	0x3c836d0e	0.016043212
253	0xbd407e63	-0.04699553
254	0xbd332862	-0.043739684
255	0xbdc14415	-0.09436814

lstm.weight_hh_l0 f4 [400, 100]
0	0xbd0f8c9d	-0.03504621
1	0xbce5d44b	-0.02805533
2	0x3d1fb5c6	0.038991712
3	0xbdd1ce96	-0.10244481
4	0xbda1e694	-0.079053074
5	0x3c6f8f3c	0.014621552
6	0x3dcc1cff	0.09966468
7	0x3be67f4f	0.0070342193
8	0x3d6b6b2d	0.057475258
9	0xbbec2cc5	-0.0072074854
10	0xbd50858b	-0.050908606
11	0xbd014c3c	-0.031566843
12	0x3d5e232e	0.05423277
13	0xbd8601d1	-0.06543315
14	0x3d430bef	0.047618803
15	0xbd4fadac	-0.050702736
16	0xbb59cb17	-0.0033232623
17	0x3d14a413	0.036289286
18	0xbccca9bb	-0.024983278
19	0xbd83eadc	-0.0644128
20	0xbd1762f3	-0.0369596
21	0xbd8e9799	-0.06962509
22	0x3b4ca895	0.0031228412
23	0x3d8b16bc	0.067914456
24	0xbd31cdeb	-0.04340927
25	0xbc40fde5	-0.011779283
26	0x3d8310bd	0.06399677
27	0xbcdbaa9c	-0.026814751
28	0x3da01a41	0.078175075
29	0x3dc0202e	0.09381138
30	0xbd20d045	-0.03926112
31	0xbd797649	-0.06090382
32	0x3c47b0ac	0.012188118
33	0xbc5b18d4	-0.013372619
34	0x3db82c94	0.089928776
35	0xbdd0fdbf	-0.10204648
36	0xbd51f2c6	-0.051256917
37	0x3c121115	0.0089152055
38	0xbce2e496	-0.027696889
39	0xbd6fb6ea	-0.05852405
40	0xbda5ddc2	-0.080989376
41	0xbd84818f	-0.06470024
42	0xbd7c17c6	-0.06154611
43	0x3ca01480	0.019541025
44	0xbd47537a	-0.048663594
45	0x3d2274d4	0.039662197
46	0x3dcab6d7	0.09898155
47	0xbe018216	-0.1264728
48	0x3d26e2fe	0.04074382
49	0x3dcfbaf8	0.10143083
50	0x3d7ea934	0.062173083
51	0xbdb9e499	-0.09076805
52	0xbc8f3d80	-0.01748538
53	0x3d6adb74	0.057338193
54	0xbcc5bde5	-0.0241384
55	0xbdcbf297	-0.0995838
56	0x3d02e926	0.03196063
57	0x3d8fcb71	0.07021225
58	0x3db75e2c	0.08953509
59	0x3dae634d	0.08515034
60	0xbbde1a35	-0.0067780265
61	0xbdda767b	-0.106671296
62	0xbd6852d5	-0.05671962
63	0xbd997cee	-0.074945316
64	0xbd7ef5a3	-0.062245976
65	0x3d03db97	0.03219184
66	0xbd4b7a43	-0.049677145
67	0x3d15ee96	0.036604486
68	0x3de4b33a	0.11166997
69	0xbd39fd2a	-0.04540745
70	0xbd8f46f7	-0.06995957
71	0x3d0e2fd1	0.03471357
72	0xbcc35a21	-0.023846688
73	0x3dacbdc9	0.08434636
74	0xbbbcbb70	-0.005759649
75	0x3dc294aa	0.09501012
76	0xbdbaa808	-0.09114081
77	0x3d782514	0.060582235
78	0xbd1e968e	-0.0387178
79	0xbd75747c	-0.05992554
80	0x3db5810c	0.08862504
81	0x3c2dbf58	0.010604702
82	0xbb10930c	-0.0022060303
83	0xbd85993a	-0.06523366
84	0x3c7b4889	0.015337118
85	0xbcb55080	-0.022133112
86	0x3dc8d195	0.098055996
87	0xbdd239df	-0.10264944
88	0xbc379ec5	-0.011207287
89	0xbd90a66b	-0.07062992
90	0x3db5559d	0.0885422
91	0xbcd5d07f	-0.026100395
92	0x3d6bc76e	0.057563238
93	0xbd788e8a	-0.06068281
94	0xbc972bd8	-0.018453524
95	0x3d74a046	0.05972316
96	0x3daec746	0.08534102
97	0xbd203198	-0.039109796
98	0xbd9922d7	-0.07477348
99	0xbd2da4aa	-0.042393364
100	0x3d38e63d	0.045141447
101	0x3d9ee2b4	0.07758084
102	0xbda24db1	-0.07924975
103	0x3da9f9ab	0.082995735
104	0xbcd3bce8	-0.025846913
105	0xbda39996	-0.079882786
106	0x3d2b2e4b	0.041792195
107	0xbb34f635	-0.002761257
108	0x3ce0f69f	0.027461348
109	0xbd9161e8	-0.07098752
110	0xbcb191d7	-0.021675987
111	0xbd7a123c	-0.061052546
112	0x3db69761	0.08915592
113	0xbd4b0788	-0.04956773
114	0xbce7dc10	-0.028303176
115	0xbd78f2eb	-0.06077854
116	0xbd8a3c79	-0.067498155
117	0x3dc8f230	0.098118186
118	0xbd2cae1c	-0.04215823
119	0xbbc4e338	-0.006008532
120	0xbda6c87c	-0.08143708
121	0x3d8edd3d	0.069757916
122	0xbd9c5655	-0.07633654
123	0x3b65e37c	0.0035078218
124	0xbdda02f9	-0.10645098
125	0xbd9190d4	-0.07107702
126	0x3ca0d4c6	0.019632708
127	0xbd0a7b07	-0.033808734
128	0xbbbc972d	-0.0057553262
129	0x3da01f00	0.07818413
130	0xbd980494	-0.07422748
131	0x3dab7aa2	0.08373
132	0xbd1c47b2	-0.03815431
133	0x3da52454	0.0806357
134	0x3da23d7e	0.07921885
135	0x3ba8626c	0.005138686
136	0x3dd29a85	0.102833785
137	0xbccffaf9	-0.025388228
138	0x3d6ad831	0.057335082
139	0x3ce549d0	0.027989298
140	0x3d8cf0ba	0.068818524
141	0xbde38b92	-0.11110605
142	0xbd877c68	-0.066155255
143	0x3d48f425	0.04906096
144	0x3cd2fe06	0.025755893
145	0xbc340a28	-0.01098875
146	0x3cb26f6d	0.021781648
147	0x3cac09b6	0.021000724
148	0xbd99ea30	-0.07515371
149	0xbd7c55c0	-0.061605215
150	0x3d9aba40	0.075550556
151	0x3c24d2e5	0.010060047
152	0xbb92ffdf	-0.0044860686
153	0xbd2652fe	-0.04060649
154	0xbbbf013e	-0.0058290055
155	0xbcce3704	-0.025172718
156	0x3d8a305e	0.067475066
157	0x3d964e21	0.07339121
158	0x3cb7b110	0.022423297
159	0xbdb64403	-0.08899691
160	0x3d8a5382	0.06754209
161	0x3d630243	0.05542208
162	0xbd9b540f	-0.07584392
163	0x3c9e8569	0.019350724
164	0x3d74493a	0.059640147
165	0x3ce22063	0.027603334
166	0x3d407ce6	0.046994112
167	0xbd9828da	-0.07429667
168	0x3d3549fc	0.04426001
169	0xbdc1dccb	-0.09465941
170	0xbda5ecb8	-0.08101791
171	0x3dcf3044	0.10116628
172	0xbbd661a4	-0.0065424014
173	0x3dcc5953	0.09977975
174	0xbd960351	-0.07324851
175	0x3c8c2ca0	0.017111123
176	0x3d0c568a	0.034262218
177	0x3d90ef97	0.07076948
178	0xbc4eaf76	-0.012615075
179	0x3da92bac	0.08260283
180	0xbd2cbb9f	-0.042171117
181	0x3c564ea8	0.013080277
182	0x3d0cade2	0.034345515
183	0x3cc0ba92	0.023526464
184	0xbdb4bba5	-0.08824853
185	0xbd0e6753	-0.034766506
186	0x3d0b923d	0.03407501
187	0x3d4369d4	0.047708347
188	0x3ce2db69	0.027692514
189	0x3c5c5329	0.013447561
190	0xbd8fddac	-0.070247024
191	0x3d6be226	0.05758872
192	0x3a996244	0.0011702259
193	0xb993746b	-0.00028124763
194	0xbd9ae97a	-0.07564063
195	0x3db18ead	0.08669791
196	0x3dc1c533	0.09461441
197	0xbc9cc8cd	-0.019138718
198	0x3bde2e08	0.0067803897
199	0x3db25e97	0.08709448
200	0x3dac783a	0.08421369
201	0x3d15374a	0.03642968
202	0x3d01fe33	0.031736564
203	0xbd671dca	-0.056424893
204	0xbd1faac9	-0.038981233
205	0x3c61b228	0.013775386
206	0x3d62393b	0.05523036
207	0xbd929151	-0.07156623
208	0x3d8e66e7	0.06953221
209	0x3d86a665	0.06574706
210	0x3d95de8b	0.07317837
211	0x3d86db23	0.06584766
212	0x3de5c8ef	0.11219966
213	0xbcb82ded	-0.022482837
214	0xb9a5f4d3	-0.0003165366
215	0x3caf348a	0.021387357
216	0x3d80924c	0.06277904
217	0x3d9cc790	0.07655251
218	0xbd99677b	-0.074904405
219	0xbd7326bd	-0.059363116
220	0x3da295c2	0.0793872
221	0x3d8532f1	0.06503857
222	0xbd470647	-0.04858997
223	0x3d601fe1	0.054717902
224	0xbda9bb28	-0.0828765
225	0x3d2871a9	0.04112402
226	0xbd6f9b04	-0.058497444
227	0xbd1d6f24	-0.03843607
228	0xbd6fb413	-0.05852134
229	0xbdecca77	-0.115620546
230	0x3d4a329f	0.049364682
231	0xbd95034d	-0.0727602
232	0x3d44f344	0.04808356
233	0x3d4b3abf	0.04961657
234	0xbd74c985	-0.059762497
235	0xbd2f1e35	-0.042753417
236	0x3da46438	0.08026928
237	0x3d0d4e40	0.034498453
238	0xbd85e1a8	-0.06537181
239	0xbcde399b	-0.027127078
240	0x3dc41def	0.09576022
241	0x3d26bfb5	0.04071017
242	0x3d232fc1	0.039840464
243	0x3d0172df	0.03160369
244	0x3d133ac2	0.035944708
245	0xbd8a0b3d	-0.06740425
246	0xbd86d531	-0.06583632
247	0x3de7b030	0.11312902
248	0xbb32de52	-0.0027293158
249	0x3d2669a7	0.0406281
250	0x3b7c3b93	0.0038487657
251	0x3da2e27e	0.07953356
252	0xbc8b5d4b	-0.017012259
253	0xbc9cf4dc	-0.019159727
254	0xbd85b110	-0.065279126
255	0xbd30961a	-0.043111898

lstm.bias_ih_l0 f4 [400]
0	0xbd62ffa0	-0.055419564
1	0x3c8dede8	0.017325357
2	0xbb9b9fe5	-0.0047492855
3	0xbd4c6da5	-0.049909253
4	0xbd518999	-0.051156614
5	0xbca2f91f	-0.01989418
6	0x3dc2112a	0.0947593
7	0xbad2c8de	-0.0016081592
8	0x3d42b41b	0.047535043
9	0xbd636c82	-0.055523403
10	0xbd198ff8	-0.037490815
11	0x3da51a37	0.08061641
12	0x3d6286ba	0.055304267
13	0xbd58b727	-0.052909043
14	0x3dc7bc3c	0.097527
15	0xbccf3ae0	-0.025296628
16	0x3d9662bd	0.073430516
17	0x3d8f2c4e	0.06990872
18	0x3b98acd7	0.004659276
19	0xbcfc05f5	-0.03076456
20	0x3d3d72a4	0.046251908
21	0x3d63dbd6	0.055629574
22	0x3dc68533	0.096933745
23	0xbc551191	-0.013004676
24	0xbd09b20c	-0.033617064
25	0x3d95b936	0.07310717
26	0xbcebe5b9	-0.028796064
27	0x3d02a78e	0.031898074
28	0x3d20d961	0.03926981
29	0x3dced1f5	0.1009864
30	0x3dc8d96c	0.09807095
31	0xbd97b09c	-0.074067324
32	0xbc52b87c	-0.012861367
33	0x3d3dacfa	0.04630754
34	0x3b4e4862	0.003147625
35	0xbc2657f6	-0.010152807
36	0x3e0f603e	0.14001557
37	0x3d8aaefa	0.067716554
38	0xbd80dff0	-0.06292713
39	0x3d202e90	0.039106905
40	0xbcf50fc9	-0.029914754
41	0x3d4e3646	0.050344728
42	0xbd6a1e30	-0.057157695
43	0x3d0576d8	0.03258404
44	0x3daaf78e	0.083479986
45	0xbcb9caca	-0.022679705
46	0x3dedcade	0.116109595
47	0x3df73424	0.12070492
48	0x3d856d86	0.065150306
49	0x3c2c18b1	0.010503934
50	0x3c50b824	0.012739215
51	0xbcc417ea	-0.023937184
52	0x3d94034d	0.07227192
53	0xbc89da80	-0.016827822
54	0xbdaaa9a7	-0.0833314
55	0x3d4ead69	0.050458346
56	0x3d4357bc	0.047691092
57	0xbb01e1df	-0.0019818468
58	0x3d7038c7	0.058647897
59	0xbd8c27d0	-0.06843531
60	0xbd6fa859	-0.05851016
61	0x3de3049b	0.11084863
62	0xbd800a2b	-0.062519394
63	0x3dd90b9b	0.10597917
64	0x3ccb7c90	0.02483967
65	0x3ade2c1e	0.0016950404
66	0x3dacd635	0.08439294
67	0xbd647175	-0.055772264
68	0xbd337e1b	-0.043821435
69	0xbd3f56f4	-0.046713784
70	0x3d36feee	0.044676714
71	0x3c8b9075	0.017036656
72	0x3cfa8f5e	0.03058594
73	0xbd010b95	-0.031505186
74	0x3da3651d	0.0797827
75	0x3d969409	0.07352454
76	0x3c59f2d4	0.013302524
77	0x3de2de8f	0.11077606
78	0x3cb57816	0.022151988
79	0x3c5cb0c6	0.01346988
80	0xbc8c1ca3	-0.017103499
81	0xbbbbc8e7	-0.0057307365
82	0x3deedff6	0.11663811
83	0x3b1a3613	0.0023530766
84	0xbd373a5d	-0.044733394
85	0x3d333de2	0.043760188
86	0xbcc1214f	-0.023575453
87	0x3c27152e	0.010197921
88	0x3ca92700	0.02064848
89	0x3d98891b	0.07448026
90	0xbd66f4ac	-0.05638568
91	0x3de0c63c	0.1097531
92	0x3ca557c5	0.020183453
93	0x3d29c078	0.041443318
94	0x3c0850f9	0.008320087
95	0x3c9157c5	0.017742047
96	0x3d9f41ca	0.0777622
97	0x3d0fae95	0.035078604
98	0x3ad702c3	0.0016404021
99	0xbc7cd4e9	-0.015431621
100	0x3ae9b062	0.0017829055
101	0x3d7e66af	0.062109645
102	0x3d22c2af	0.039736446
103	0xbcfcf043	-0.030876284
104	0x3d058702	0.032599457
105	0x3ca6d73e	0.020366307
106	0x3d999c75	0.07500545
107	0x3cc3665e	0.023852523
108	0x3d7b220b	0.061311763
109	0xbd9108d6	-0.070817634
110	0x3d7b29f0	0.06131929
111	0x3d8f5018	0.069976985
112	0xbd0ee542	-0.034886606
113	0xbd1c267a	-0.03812263
114	0xbd7fcdff	-0.062452313
115	0x3d5b37a0	0.053519845
116	0x3cd2c6d4	0.025729574
117	0x3b06ef78	0.0020589512
118	0xbd40f92f	-0.04711264
119	0x3d55fdf8	0.052244157
120	0x3d789242	0.060686357
121	0xbdafff10	-0.08593571
122	0x3c6ed712	0.014577644
123	0x3dcaedec	0.09908661
124	0xbd6f27ee	-0.05838769
125	0x3c0b038a	0.0084847305
126	0x3b83a167	0.0040170434
127	0x3dabc34c	0.08386859
128	0xbd9aaaad	-0.07552085
129	0xba3a972e	-0.00071178644
130	0x3da68281	0.081303604
131	0x3d81862f	0.063244216
132	0x3d905d38	0.0704903
133	0x3db906b9	0.09034485
134	0x3dea2cce	0.11434327
135	0xbd2e8cd9	-0.04261479
136	0x3d33941f	0.04384243
137	0xbd3f9ce5	-0.046780486
138	0x3da8252c	0.08210215
139	0xbdb287b6	-0.08717291
140	0x3ad3818b	0.0016136629
141	0x3d073512	0.033009596
142	0x3da8e01d	0.08245871
143	0x3d8065bd	0.06269405
144	0x3dc066f3	0.09394636
145	0x3ca8f79e	0.020625886
146	0xbd2826ff	-0.041052815
147	0xbd38756b	-0.045033854
148	0x3d8adebf	0.06780767
149	0xbd92fd2a	-0.071771935
150	0xbd416934	-0.04721947
151	0x3d249a1e	0.04018604
152	0x3d3c6bcd	0.046001244
153	0xbc8a5095	-0.016884128
154	0x3cb300dd	0.021850998
155	0x3ddb6aa2	0.10713698
156	0x3bc81ffb	0.006107328
157	0x3df278fe	0.11839484
158	0x3dc3c484	0.09558967
159	0x3c73a0e7	0.014869905
160	0xbd887a2c	-0.066639274
161	0x3db19015	0.086700596
162	0x3c60f77f	0.013730883
163	0xbd75fae7	-0.060053732
164	0x3c43a950	0.011942223
165	0x3d021255	0.031755764
166	0x3de152c2	0.11002113
167	0x3dce2d17	0.10067194
168	0xbd8b07b3	-0.06788578
169	0x3d72f893	0.05931909
170	0x3b295307	0.0025836842
171	0x3d687159	0.05674872
172	0xbd02157f	-0.03175878
173	0xbc69745e	-0.0142489355
174	0xbd11d408	-0.0356026
175	0x3d744ef3	0.059645604
176	0x3db3dd57	0.087824516
177	0xb9e1eab9	-0.00043090226
178	0x3c2ffe7b	0.010741825
179	0x3daae9d3	0.0834538
180	0xbd4263ee	-0.04745858
181	0xb99162f9	-0.00027730296
182	0x3abc7e0c	0.0014380827
183	0xbd8e5945	-0.069506206
184	0x3d14a7b1	0.036292735
185	0xbdadbdca	-0.08483465
186	0xbdcc08b3	-0.09962597
187	0xbdbaf040	-0.09127855
188	0x3d6acf66	0.057326697
189	0x3d7ee535	0.062230308
190	0xbd446c19	-0.047954652
191	0xbcbd248d	-0.023088718
192	0xbd929b7a	-0.07158561
193	0x3db48c27	0.088157944
194	0xbd4b3dc3	-0.049619447
195	0x3dd9da0b	0.106372915
196	0x3cf28228	0.029603079
197	0xbd633a17	-0.05547532
198	0x3dd4c6ca	0.103894785
199	0x3ca1edcf	0.019766716
200	0xbc14b97c	-0.009077426
201	0xbc85e954	-0.016346611
202	0xbd92e0e9	-0.071718045
203	0x3db40d3b	0.08791586
204	0x3c7e97b7	0.015539101
205	0xbc6760d1	-0.014122204
206	0xbd5ae1eb	-0.05343811
207	0x3d81a505	0.06330303
208	0x3da46b68	0.080282986
209	0xbd6c12f5	-0.057635266
210	0xbd8f85cb	-0.07007941
211	0xbd6b8b1c	-0.057505712
212	0x3cfb4538	0.030672655
213	0xbda31050	-0.07962096
214	0x3dc35902	0.09538461
215	0x3de3ad9c	0.11117098
216	0x3d8d4629	0.068981476
217	0xbd5605b6	-0.05225154
218	0xbd9b747d	-0.07590578
219	0xbd102340	-0.035189867
220	0xbd614621	-0.05499852
221	0xbcd82072	-0.026382659
222	0x3daecb7c	0.08534905
223	0x3d3c3408	0.04594806
224	0xbd9cecdd	-0.076623656
225	0xbdcdf0cf	-0.10055696
226	0xbc425045	-0.011859958
227	0xbd81c287	-0.06335931
228	0x3d8eaec6	0.06966929
229	0xba938b49	-0.001125672
230	0xbd0557da	-0.032554485
231	0x3de705f6	0.11280434
232	0xbd06faa8	-0.03295389
233	0x3dd1a230	0.10236013
234	0xbd0e4218	-0.034731
235	0xbce14f3d	-0.027503604
236	0x3daa3056	0.083100006
237	0xbd540bda	-0.051769115
238	0xbd00731f	-0.031359788
239	0xbd1d3742	-0.038382776
240	0x3d888321	0.06665636
241	0xbdbbb12d	-0.09164653
242	0xbd4d9fe4	-0.05020131
243	0xbd9ea3d2	-0.0774609
244	0x3cd73a6a	0.026272971
245	0x3d6441ac	0.055726692
246	0xbdd114d3	-0.1020905
247	0x3dc8eb01	0.098104484
248	0x3d179289	0.03700498
249	0xbdf14b4b	-0.11781939
250	0xbccbd5db	-0.024882248
251	0x3d336628	0.043798596
252	0xbd1653d2	-0.03670103
253	0x3d860242	0.065433994
254	0xbc17272f	-0.009225651
255	0xbd8a6f4f	-0.06759512

lstm.bias_hh_l0 f4 [400]
0	0xbd1f2d19	-0.038861368
1	0x3cb3fb89	0.021970527
2	0xbd1f8b08	-0.03895095
3	0xbcc25f06	-0.023726951
4	0xbd83bb74	-0.06432238
5	0xbd82a58d	-0.063792326
6	0x3caad6a3	0.0208543
7	0x3cc8fbf3	0.024534201
8	0xbd522292	-0.0513025
9	0xbda84547	-0.082163386
10	0x3d7d5c15	0.061855394
11	0xbcac997d	-0.021069283
12	0x3dca042b	0.09864076
13	0x3c9cbae1	0.01913208
14	0xbd37d412	-0.04487998
15	0xbcc3550f	-0.02384427
16	0x3d594e56	0.053053223
17	0x3da12ff5	0.07870475
18	0x3d8f8cb2	0.070092574
19	0xbd055505	-0.032551784
20	0x3cc2cb40	0.023778558
21	0xbbe8d2dd	-0.007105215
22	0xbcfb9400	-0.03071022
23	0x3da2b2e5	0.07944278
24	0xbd8a7640	-0.06760836
25	0x3c5e5ffb	0.013572688
26	0xbd573888	-0.052544147
27	0x3d306eea	0.043074526
28	0x3bda7a64	0.006667422
29	0x3dd80dfb	0.105495416
30	0x3d6d8120	0.05798447
31	0x3ddf46d7	0.109021835
32	0xbdaba7ab	-0.083815895
33	0xbd90289a	-0.07038994
34	0x3b105ad5	0.0022026796
35	0xbcc54d0f	-0.024084596
36	0x3d84ae6d	0.064785816
37	0xbda586a3	-0.080823205
38	0xbd36c952	-0.044625588
39	0x3b288606	0.002571465
40	0x3cc32868	0.023822978
41	0xbc9fec53	-0.019521868
42	0xba61d8fe	-0.0008615403
43	0x3c29134d	0.010319543
44	0xbbe9eafd	-0.0071386085
45	0xbaeda9a7	-0.0018132225
46	0xbbefe6df	-0.007321223
47	0x3e0a2671	0.13491227
48	0xbc5f02e1	-0.013611526
49	0xbcc2f209	-0.023797052
50	0x3df70294	0.120610386
51	0x3d6747a3	0.056464802
52	0xbd883bd0	-0.06652033
53	0xbc92de99	-0.017928408
54	0x3d3b94ac	0.04579608
55	0x3d3e0d05	0.046399135
56	0x3baf9c3a	0.0053592
57	0xbcb9ade9	-0.022665935
58	0x3ca44d24	0.020056315
59	0x3d630796	0.055427156
60	0x3d054b36	0.03254243
61	0x3bdcd4bb	0.0067392266
62	0x3c0f9b72	0.008765088
63	0x3d59b480	0.053150654
64	0x3dd5e853	0.10444703
65	0x3d056c98	0.032574266
66	0x3d04969d	0.0323702
67	0x3d1cd529	0.038289223
68	0xbd3ee458	-0.046604484
69	0x3d8e3093	0.069428585
70	0x3cba85d1	0.022768887
71	0xbd194791	-0.037421767
72	0x3cc9c916	0.024632018
73	0xbbc95950	-0.00614468
74	0xbd195cdc	-0.037442073
75	0x3db88ad3	0.090108536
76	0xbb93f60c	-0.004515415
77	0x3d689e08	0.056791335
78	0x3dd8570b	0.10563477
79	0x3dc17b21	0.09447313
80	0xbcab2b07	-0.02089454
81	0x3d8fb474	0.070168406
82	0xbd1b2711	-0.037879054
83	0x3cc60dfe	0.024176594
84	0xbbc0b578	-0.0058810078
85	0x3a28e368	0.00064425776
86	0x3cb60314	0.022218265
87	0x3d4a5e3f	0.049406286
88	0x3d007719	0.03136358
89	0x3de8710d	0.11349688
90	0x3db3ff1a	0.08788891
91	0x3d71ac75	0.05900236
92	0x3d01d7e9	0.03170005
93	0xbc46b1fc	-0.012127396
94	0xbd44541e	-0.047931783
95	0xbba06d71	-0.004895859
96	0x3dc9ef97	0.09860151
97	0x3c121a83	0.008917454
98	0x3dcefe7b	0.10107132
99	0x3bb89212	0.0056326473
100	0x3d2590f4	0.04042144
101	0xba75758d	-0.0009363525
102	0xbc75744b	-0.01498134
103	0x3db18d8f	0.08669578
104	0xbca9870f	-0.020694284
105	0xbd2a9c5d	-0.041653026
106	0xbd48219b	-0.048860174
107	0xbb82a3fe	-0.0039868345
108	0x3d7ad56c	0.06123869
109	0x3d7cc770	0.061713636
110	0xbd1b6c0d	-0.037944842
111	0xbda6a55f	-0.08137011
112	0xbdac9a8e	-0.084279165
113	0x3d8c2335	0.06842653
114	0x3d86ed78	0.06588262
115	0x3d99ec49	0.07515771
116	0xbd99716e	-0.07492338
117	0x3d05bbaf	0.032649692
118	0x3d94fda5	0.07274941
119	0x3d4adca4	0.049526826
120	0x3d1d58d5	0.038414795
121	0x3d052227	0.032503273
122	0xbd6619a6	-0.056176804
123	0xbdaa2d2f	-0.08309399
124	0x3d34ba74	0.044123128
125	0x3ddcdcb4	0.10784283
126	0x3d5589be	0.052133314
127	0xbd4265ee	-0.04746049
128	0xbcb8a323	-0.022538727
129	0xbd95d35d	-0.07315705
130	0x3d7858f0	0.060631692
131	0xbd6f62e8	-0.058443934
132	0x3c4a2186	0.012337094
133	0xbd45f9c8	-0.048333913
134	0xbd427206	-0.047472022
135	0xbd1213e6	-0.035663508
136	0xbdb2fb05	-0.087392844
137	0xbc0e29c3	-0.008676949
138	0x3d1171a2	0.03550876
139	0x3cbfd8fc	0.023418896
140	0x3c274ebc	0.010211643
141	0x3cac0e28	0.021002844
142	0xbcabd008	-0.02097322
143	0xbd7b89a0	-0.061410546
144	0x3d29736b	0.041369837
145	0xbd98ceec	-0.07461342
146	0x3db981f0	0.09057987
147	0x3c992204	0.018692978
148	0x3d6f0522	0.058354504
149	0xbd9851d8	-0.074374855
150	0x3d7c0492	0.061527796
151	0x3dcb3c55	0.09923617
152	0x3ad48c8f	0.0016216206
153	0x3d6c4476	0.057682477
154	0xbd336f75	-0.043807466
155	0xb9b3a0e0	-0.00034261402
156	0x3c059e77	0.008155457
157	0xbd874853	-0.066055916
158	0x3d1d9f24	0.038481846
159	0xbb80eab7	-0.00393423
160	0x3d3347a0	0.04376948
161	0x3d89f981	0.06737042
162	0x3c4c8417	0.012482665
163	0x3c2ed5ff	0.010671138
164	0x3d789d1a	0.0606967
165	0x3dc11f4b	0.09429797
166	0xbc73e601	-0.01488638
167	0x3db5fd3f	0.088861935
168	0x3dcdabfb	0.10042568
169	0x3d4b84af	0.049687084
170	0xbd9f57b8	-0.07780403
171	0xbda12bae	-0.07869659
172	0xbd4dbdb5	-0.050229747
173	0x3d772b8f	0.060344275
174	0x3d9141f6	0.07092659
175	0xbd810958	-0.0630061
176	0x3dc27469	0.0949486
177	0x3c5ad198	0.013355635
178	0x3ddd3d65	0.10802726
179	0xbca67f4a	-0.020324368
180	0xbd9dad65	-0.07699088
181	0x3cf1e390	0.029527456
182	0xbc9e3c7c	-0.01931595
183	0xbd069d23	-0.0328647
184	0x3ceb3b09	0.028714674
185	0xbd00363c	-0.031301722
186	0xbcdae8f3	-0.026722407
187	0x3c6207a6	0.013795769
188	0xbd3d87d2	-0.046272106
189	0xbbdc1514	-0.00671638
190	0x3c530d44	0.012881581
191	0x3dd74a3a	0.105122045
192	0x3ab1c1ec	0.0013561822
193	0xbd2291f9	-0.03968999
194	0x3dd44023	0.103637956
195	0x3b45621d	0.0030118295
196	0xbd6397b5	-0.0555646
197	0xbd9045e4	-0.070445806
198	0xbceb1c16	-0.028699916
199	0xbd366b8d	-0.044536162
200	0xbda30720	-0.07960343
201	0x3d7e8142	0.06213499
202	0x3dac94e4	0.08426836
203	0xbc73b078	-0.014873616
204	0xbdcc5616	-0.09977357
205	0xbd46ea4c	-0.048563287
206	0x3d1d9f8e	0.03848224
207	0x3d08471a	0.033270933
208	0xbd913427	-0.070900254
209	0xbb536843	-0.003225819
210	0x3dea405b	0.11438056
211	0x3bec2290	0.0072062686
212	0x3dbf8ce9	0.09353048
213	0x3d6de21e	0.05807697
214	0x3d0d32bd	0.034472216
215	0x3d0c8dd9	0.034314964
216	0x3ca5f0eb	0.02025648
217	0x3d01e942	0.031716593
218	0xbd5c00c8	-0.053711683
219	0x3d5b2d1c	0.053509817
220	0xbd6666eb	-0.056250494
221	0xbd95a697	-0.07307165
222	0x3d5cbf1a	0.053893186
223	0x3cd599d7	0.026074333
224	0xbdcaab3c	-0.098959416
225	0xbd2a9c94	-0.04165323
226	0x3d76376e	0.060111456
227	0x3c227419	0.009915375
228	0xbddd5a1d	-0.10808203
229	0xbda69eda	-0.08135767
230	0xbcb7a75a	-0.022418667
231	0x3d78a6ea	0.060706057
232	0xbcd3fa6c	-0.025876246
233	0xbc7a920c	-0.015293609
234	0xbdae39c1	-0.085071094
235	0x3dc416e5	0.09574679
236	0xbd8d86d1	-0.0691048
237	0x3dc87de3	0.09789636
238	0xbda5ccdb	-0.08095714
239	0xbdb98a27	-0.090595536
240	0x3c14bd7c	0.00907838
241	0xbd95709a	-0.07296868
242	0x3d96f271	0.07370461
243	0xbce29327	-0.027658058
244	0xbdb9526c	-0.09048924
245	0xbdb1dce4	-0.0868471
246	0xbcfaefae	-0.030631866
247	0xbd8e8503	-0.06958964
248	0xbd8bb334	-0.0682129
249	0xbcda63b7	-0.026658876
250	0xbc48d886	-0.012258654
251	0xbcf0730e	-0.029351737
252	0xbd1b6946	-0.037942193
253	0x3dd4a8dc	0.1038377
254	0x3b945a4b	0.0045273653
255	0x3db4f24a	0.088352755

fc.weight f4 [1, 100]
0	0xbd97b4ad	-0.07407508
1	0xbcd57794	-0.026057996
2	0x3dcd8cdc	0.100366324
3	0xbc0e1948	-0.00867302
4	0x3ddb66b0	0.107129455
5	0x3de9b3e6	0.11411266
6	0x3d8a5568	0.06754571
7	0xbd979e82	-0.0740328
8	0x3cec24aa	0.028826077
9	0x3dce0ef8	0.10061449
10	0x3d361411	0.04445273
11	0x3d5a8caf	0.053356823
12	0xbd712faa	-0.058883347
13	0x3df99a1e	0.12187599
14	0xbcbf0a39	-0.023320304
15	0x3d231329	0.039813194
16	0xbde34659	-0.11097402
17	0x3dadc86d	0.08485494
18	0x3d86505e	0.065582976
19	0x3dde6033	0.10858192
20	0xbced91ed	-0.029000247
21	0x3d76e90d	0.06028085
22	0xbceb9d74	-0.028761603
23	0x3e0d3a6b	0.13791816
24	0xbddbeab6	-0.10738127
25	0xbd423f65	-0.04742374
26	0x3d3e4f18	0.04646215
27	0x3d90df3a	0.07073827
28	0xbd372f59	-0.04472289
29	0x3de22cdd	0.11043713
30	0xbe062485	-0.13099869
31	0xbd242803	-0.04007722
32	0x3dc689c3	0.09694245
33	0xbd6ddd32	-0.058072276
34	0xbd484ada	-0.04889951
35	0xbd1b1c50	-0.037868798
36	0x3e10ff5f	0.14159916
37	0x3d5ab7a7	0.0533978
38	0x3de55f40	0.11199808
39	0x3dcafb32	0.09911193
40	0x3df5bb01	0.11998559
41	0xbd940bd8	-0.072288215
42	0xbb100dd7	-0.0021980905
43	0xbd3fd75d	-0.046836246
44	0xbdfd6dcd	-0.123744585
45	0xbdfe41fd	-0.1241493
46	0xbd2c23d5	-0.04202636
47	0x3dda1c56	0.10649936
48	0x3c113fa4	0.008865271
49	0xbda6e644	-0.081493884
50	0x3d19ea03	0.037576687
51	0xbddcaf23	-0.10775592
52	0x3b039e52	0.002008338
53	0xbcbf9778	-0.023387656
54	0x3c3d28b6	0.011545351
55	0x3d275dc8	0.04086092
56	0x3b7f77e6	0.0038981377
57	0x3db9c05d	0.090698935
58	0x3da991fb	0.08279797
59	0x3d3a39f9	0.045465443
60	0x3da124e4	0.078683645
61	0xbd1a0371	-0.03760094
62	0xbd9c1126	-0.07620458
63	0x3da6e390	0.08148873
64	0xbd4293e8	-0.047504336
65	0xbd902875	-0.070389666
66	0x3cf84ea5	0.030310938
67	0xbc36760e	-0.011136545
68	0x3daef172	0.08542146
69	0xbdb53048	-0.088470995
70	0x3bed6df2	0.0072457725
71	0x3dc61bcd	0.09673271
72	0xbd445e0d	-0.047941256
73	0xbd27144e	-0.04079085
74	0xbd2ccfbd	-0.042190302
75	0x3cc348d4	0.023838438
76	0xbb513391	-0.0031921605
77	0x3e05e751	0.13076521
78	0x3deff89e	0.11717342
79	0xbdf1f26d	-0.11813817
80	0x3d9416a0	0.07230878
81	0x3d4003ac	0.0468785
82	0x3de9bd1c	0.11413023
83	0x3cb42d6c	0.021994315
84	0xbc950345	-0.018190036
85	0xbde9d459	-0.11417455
86	0x3d2c3acd	0.042048264
87	0x3d45120b	0.04811291
88	0x3db06075	0.08612148
89	0x3ddab4ce	0.10679017
90	0x3cdb78a3	0.026790923
91	0x3d8e786d	0.06956563
92	0x3df36a9f	0.11885571
93	0x3c2c5fa3	0.010520848
94	0xbd8afe6e	-0.0678681
95	0xbc2e6f18	-0.010646604
96	0x3deabc01	0.1146164
97	0x3cc3c00c	0.023895286
98	0xbd7e00a9	-0.06201235
99	0x3d63ab8a	0.055583514
